Autoencoder/vae_beta5_epoch40.pth (torch, 927497 bytes, 25 tensors)

encoder.conv.0.weight f4 [32, 1, 3, 3]
0	0xbdf771ff	-0.1208229
1	0x3e88c769	0.26714638
2	0x3dee7aed	0.1164454
3	0x3ef9c0f3	0.4878002
4	0x3e5e8ea1	0.21734096
5	0xbe9b9bb4	-0.3039223
6	0x3ea31a34	0.3185593
7	0x3cac9454	0.021066822
8	0xbe355b45	-0.17710598
9	0x3e10fe98	0.1415962
10	0xbe398fe8	-0.18121302
11	0xbea8da50	-0.3297906
12	0x3e162b46	0.14664945
13	0x3e757983	0.23972134
14	0xbe5a4004	-0.21313483
15	0x3e9bb154	0.30408728
16	0x3d817e2d	0.06322894
17	0x3d189639	0.03725264
18	0x3e5ecc4a	0.21757618
19	0xbe6f06c9	-0.23342432
20	0xbcf07dd3	-0.029356873
21	0x3f1fbcd9	0.62397534
22	0x3e64730e	0.22309515
23	0xbdb3759b	-0.08762666
24	0x3e87bf7c	0.26513278
25	0xbe5de174	-0.21668035
26	0x3d578ae8	0.052622706
27	0xbd16553f	-0.03670239
28	0xbc8f645f	-0.017503915
29	0x3e0cd737	0.13753973
30	0x3e2a7269	0.16645207
31	0x3e9b043c	0.30276668
32	0x3e1f6bac	0.15568417
33	0x3bbd9c68	0.0057864673
34	0x3e5655b6	0.20931134
35	0xbe0e6a2e	-0.13907692
36	0x3df4f103	0.11960032
37	0xbd781a27	-0.060571816
38	0x3e4e6b12	0.20158032
39	0x3e15c6bc	0.14626592
40	0xbc8589fe	-0.016301151
41	0xbe014ed1	-0.12627722
42	0x3d9d20a8	0.07672244
43	0xbea05149	-0.31312016
44	0xbe9198ba	-0.28436834
45	0x3e2bee6f	0.16790174
46	0x3e0e04c6	0.13869008
47	0x3e494072	0.1965349
48	0x3e0b781a	0.13620034
49	0x3e484d8c	0.19560832
50	0xbe2237a2	-0.15841535
51	0x3e358fb8	0.17730606
52	0x3e573b12	0.21018627
53	0xbe6cdc68	-0.23130953
54	0xbe0622b5	-0.13099177
55	0xbec80f72	-0.39074284
56	0x3d490b2a	0.049082913
57	0x3d8a10b4	0.06741467
58	0xbe2e4b36	-0.17020878
59	0x3d82c2ab	0.06384786
60	0xbe47d5a8	-0.19515097
61	0xbe664ac5	-0.2248946
62	0xbe1f1a03	-0.15537266
63	0xbdb8f623	-0.09031322
64	0xbe485394	-0.19563133
65	0xbd89b157	-0.06723278
66	0x3e4fe60e	0.20302603
67	0xbe5c4272	-0.21509722
68	0x3e986fcf	0.29772803
69	0x3db07fcb	0.086181246
70	0xbec66259	-0.38746908
71	0xbc7d4364	-0.015457962
72	0xbe24d40c	-0.16096514
73	0xbe664dd7	-0.22490631
74	0xbe910750	-0.28325891
75	0xbeadc64d	-0.33940354
76	0x3e36db49	0.17857088
77	0x3dc81862	0.09770276
78	0xbea12675	-0.31474653
79	0xbde5707b	-0.112030946
80	0x3e29e6d3	0.16591959
81	0x3d1c83fb	0.038211804
82	0xbe23ccbe	-0.15996072
83	0x3e9cf036	0.30652016
84	0xbe2e850f	-0.17042945
85	0x3d8adfd6	0.067809746
86	0x3e845c66	0.25851744
87	0xbe6da3d1	-0.23207022
88	0xbe16691a	-0.1468853
89	0xbec9ba96	-0.39400166
90	0x3e169fc7	0.14709388
91	0xbe3cb759	-0.18429317
92	0xbe92fdc9	-0.28709248
93	0x3d4fef23	0.050765168
94	0x3e481ff1	0.19543435
95	0xbe7da7ba	-0.24771014
96	0xbe9e7d18	-0.30954814
97	0xbe531944	-0.20615107
98	0x3d2fde0e	0.042936377
99	0xbe6fd875	-0.23422416
100	0x3d92c1fb	0.07165905
101	0xbe8c2442	-0.27371413
102	0xbd9fbec7	-0.0780006
103	0x3cb199e6	0.02167983
104	0x3d032bd2	0.032024212
105	0xbe65aef9	-0.22430028
106	0xbd40d5f2	-0.047079034
107	0xbee22dc8	-0.44175553
108	0xbebd2dc9	-0.36948994
109	0x3e69507a	0.22784606
110	0x3e919f0f	0.28441665
111	0x3df49b1a	0.11943646
112	0x3dc51352	0.09622826
113	0xbd0e8a24	-0.03479971
114	0xbe26c609	-0.16286482
115	0x3d2a6616	0.041601263
116	0x3e0e9cb8	0.13926971
117	0xbeb13ba6	-0.3461582
118	0x3e82d6fd	0.25554648
119	0x3d12f45b	0.035877567
120	0x3dd6cc8a	0.104882315
121	0xbe9e9dff	-0.30979916
122	0xbefccf17	-0.49376747
123	0xbdf150b7	-0.11782973
124	0xbd4e5a11	-0.050378863
125	0x3d96166a	0.07328494
126	0xbd1f802f	-0.038940605
127	0xbcb43304	-0.021996982
128	0x3eccb586	0.3998224
129	0x3e5dc248	0.21656144
130	0xbe0c8510	-0.13722634
131	0x3e6902a1	0.22754909
132	0x3dad4c00	0.084617615
133	0x3e5615b1	0.20906712
134	0x3e9503a8	0.29104352
135	0x3cb69b57	0.022290869
136	0x3e56c486	0.20973405
137	0xbe4d341d	-0.20039411
138	0xbe6df715	-0.23238786
139	0xbec462de	-0.3835668
140	0x3de7d56c	0.11320004
141	0x3e95a3fa	0.29226667
142	0xbeac7ab0	-0.33687353
143	0xbd9eaac5	-0.077474155
144	0xbe0b29d9	-0.13590182
145	0x3d593d88	0.053037196
146	0xbd264212	-0.040590353
147	0xbe6123e9	-0.21986355
148	0x3e1a4d12	0.15068462
149	0x3ebb18b6	0.3654229
150	0x3d8c5528	0.0685218
151	0x3e8466a5	0.25859562
152	0xbe390272	-0.18067339
153	0x3e03fa64	0.12888485
154	0xbced1f25	-0.028945515
155	0x3e3710ea	0.17877546
156	0xbdde68fd	-0.10859869
157	0x3dc7e662	0.09760739
158	0xbe579d7a	-0.21056166
159	0xbe33f7ee	-0.17575046
160	0xbe9a82d3	-0.30177936
161	0xbda19e75	-0.078915514
162	0xbb91d016	-0.0044498546
163	0x3cf73c5e	0.030180153
164	0x3e886ba8	0.26644635
165	0xbe95f405	-0.29287735
166	0xbe2d82e1	-0.16944458
167	0xbd6b7a18	-0.057489485
168	0x3c9c1100	0.019051075
169	0x3e22b573	0.1588953
170	0xbe8de83d	-0.27716246
171	0xbd6d0f5d	-0.05787598
172	0x3e3e6ab8	0.18595397
173	0x3e423760	0.18966436
174	0x3d1e13db	0.038593154
175	0x3d81164c	0.06303081
176	0xbe07f12e	-0.13275596
177	0xbdc930bc	-0.098237485
178	0x3dfe0166	0.124026105
179	0xbebc092e	-0.36725754
180	0xbf2b96dd	-0.67027074
181	0xbbb21688	-0.005434815
182	0xbd0d1c89	-0.03445104
183	0xbe784082	-0.24243358
184	0x3daf3bdf	0.085563414
185	0x3bec2697	0.0072067487
186	0x3e9d5af2	0.30733448
187	0xbe46a4c6	-0.19398794
188	0x3d5e27fa	0.054237343
189	0xbe4e0240	-0.20118046
190	0x3ea06cfc	0.31333148
191	0x3c103fc4	0.008804265
192	0xbea8969f	-0.32927415
193	0x3ebe620a	0.37184173
194	0x3ea871cc	0.3289932
195	0x3e5373a5	0.20649584
196	0x3e61d0e3	0.2205234
197	0x3e56e136	0.20984349
198	0xbebc0552	-0.3672281
199	0xbe4339a3	-0.19064955
200	0x3e4a9cd0	0.19786382
201	0xbdefa587	-0.11701494
202	0x3e0b634b	0.13612096
203	0x3eb56027	0.3542492
204	0x3da7a206	0.081852004
205	0xbdfe0d9c	-0.124049395
206	0x3ce0b3da	0.02742951
207	0x3e99c215	0.30030885
208	0x3ea7e808	0.32794213
209	0xbdc6b5a4	-0.09702614
210	0xbddd6739	-0.10810704
211	0x3e1f28af	0.15542863
212	0x3e4e87ff	0.20169066
213	0xbdb496ec	-0.088178486
214	0x3e78bd71	0.24291016
215	0x3dc6dc35	0.0970997
216	0x3e4785ae	0.19484589
217	0x3e83738d	0.25674096
218	0x3c86f3fe	0.016473766
219	0x3dd86bf9	0.10567469
220	0xbd1cd691	-0.038290564
221	0x3e98491b	0.29743275
222	0xbe0b14b1	-0.13582112
223	0x3e38a040	0.1802988
224	0x3d60946a	0.05482904
225	0x3d822047	0.06353813
226	0xbe33e23b	-0.17566769
227	0x3e66fc76	0.22557244
228	0x3e78253a	0.24232951
229	0x3ec4cbd7	0.38436767
230	0x3dcb946b	0.09940418
231	0x3e6db1a0	0.2321229
232	0xbe1abf87	-0.15112124
233	0x3eb12362	0.34597307
234	0xbe9e04d6	-0.30863065
235	0x3e49e74a	0.19717136
236	0xbdcef554	-0.101053864
237	0xbcd9efb8	-0.026603565
238	0xbe8ca092	-0.27466255
239	0xbe3cd862	-0.18441918
240	0x3e678a4f	0.22611354
241	0x3dbe63df	0.09296393
242	0xba56c139	-0.00081922446
243	0x3cf81dff	0.03028774
244	0xbd45b83b	-0.0482714
245	0x3df17f90	0.11791909
246	0xbe58e254	-0.21180087
247	0xbe269f56	-0.1627172
248	0x3e341043	0.17584328
249	0xbe9ef832	-0.31048733
250	0x3e297cc9	0.16551508
251	0x3e63d056	0.22247443
252	0x3e8e8836	0.27838296
253	0xbe5f7598	-0.21822202
254	0x3ea53a62	0.32271105
255	0xbd79a5d5	-0.060949165

encoder.conv.0.bias f4 [32]
0	0x3dc4e07a	0.09613128
1	0xbe3b30ee	-0.18280384
2	0xbd830da5	-0.06399087
3	0x3e010ba2	0.12602094
4	0xbe7a4691	-0.24440981
5	0xbebba727	-0.36650965
6	0x3e93d14d	0.2887062
7	0x3dcd5db5	0.10027639
8	0x3e9adb83	0.302456
9	0x3e2434f4	0.16035825
10	0xbc5194b6	-0.012791803
11	0xbe503f77	-0.2033671
12	0x3e6ffc19	0.23436011
13	0xbe30ec0d	-0.17277546
14	0xbe1b6448	-0.15174973
15	0xbe18e9a9	-0.14932884
16	0xbea91208	-0.3302157
17	0x3d04fcd5	0.032467682
18	0x3e4ad494	0.19807655
19	0xbe9d4af1	-0.30721238
20	0x3d49e127	0.049286988
21	0xbeb66ab3	-0.3562828
22	0xbe2991d8	-0.16559541
23	0xbd8f794b	-0.07005557
24	0xbc827d88	-0.015928999
25	0xbecfee64	-0.40611565
26	0xbd48c920	-0.049019933
27	0x3c8c4379	0.017122017
28	0x3eb80d6c	0.3594774
29	0xbe705d22	-0.23473027
30	0x3e67a8b9	0.22622956
31	0x3dfa8b34	0.12233582

encoder.conv.1.weight f4 [32]
0	0x3f7b8dd3	0.9826328
1	0x3f4ec7d2	0.8077365
2	0x3f770054	0.96484876
3	0x3f83c8c4	1.0295644
4	0x3f824312	1.0176718
5	0x3f865210	1.0493793
6	0x3f8c3fc8	1.0956964
7	0x3f7e2521	0.99275404
8	0x3f98f8c5	1.1950918
9	0x3f83a1a8	1.0283709
10	0x3f93343b	1.1500314
11	0x3fb9c170	1.4512157
12	0x3f5ec105	0.87013274
13	0x3f87fe82	1.0624545
14	0x3f781798	0.96911
15	0x3f7bc73c	0.9835088
16	0x3f690d3f	0.91035837
17	0x3f80d419	1.0064727
18	0x3f800640	1.0001907
19	0x3f5adda7	0.85494465
20	0x3f693b46	0.9110607
21	0x3f80e4c6	1.0069816
22	0x3f83f7d4	1.0310006
23	0x3f6b9175	0.92018825
24	0x3f4d89a7	0.80288166
25	0x3f6aa612	0.91659653
26	0x3f83086e	1.0236948
27	0x3f82e139	1.0224983
28	0x3f47345d	0.77814275
29	0x3f8bf7aa	1.0934956
30	0x3f7e0270	0.9922247
31	0x3f816417	1.010867

encoder.conv.1.bias f4 [32]
0	0xbe4e3341	-0.2013674
1	0xbdd03468	-0.10166246
2	0xbe951c68	-0.29123235
3	0x3e183930	0.14865565
4	0x3c0d08f3	0.008608091
5	0xbd6402df	-0.0556668
6	0x3d86acda	0.065759376
7	0xbd372b31	-0.044718925
8	0x3e0cbab4	0.13743097
9	0xbcc3d119	-0.023903416
10	0x3e1bd9a9	0.1521975
11	0x3ef73f0b	0.48290285
12	0xbdedf46b	-0.11618885
13	0x3dad3371	0.08457077
14	0xbe4013be	-0.18757531
15	0x3d550f0a	0.052016295
16	0xbd6a21a4	-0.05716099
17	0x3d948ea0	0.07253766
18	0x3d23cfe7	0.039993193
19	0xbd4b776e	-0.049674444
20	0x3c3da35b	0.0115745915
21	0x3d37cb77	0.044871774
22	0xbd553d6b	-0.052060526
23	0xbccfd4d6	-0.025370043
24	0xbd6a45fe	-0.057195656
25	0xbe243c4b	-0.16038625
26	0x3d9f93c3	0.07791855
27	0xbcd57f1c	-0.026061587
28	0xbe618f12	-0.22027233
29	0xbd378531	-0.044804756
30	0xbe1dcf56	-0.15411124
31	0x3af9e565	0.0019065557

encoder.conv.1.running_mean f4 [32]
0	0x3e4a71e4	0.19770008
1	0xbe20ff44	-0.15722376
2	0x3d166f39	0.036727164
3	0x3e639556	0.22224936
4	0xbe8d3c0a	-0.2758487
5	0xbe87583f	-0.26434514
6	0x3e1f8f14	0.15581924
7	0x3d5ce78b	0.053931754
8	0x3e38ae78	0.18035305
9	0x3ddc3bf2	0.10753621
10	0xbde23d4d	-0.110468484
11	0xbeb1c15c	-0.34717834
12	0x3e8d5e9f	0.27611253
13	0xbe8dfa6e	-0.27730125
14	0xba51cd0b	-0.0008003271
15	0xbe634e8e	-0.22197935
16	0xbe94fe7d	-0.2910041
17	0xbced9a99	-0.029004382
18	0x3e214b21	0.15751316
19	0xbea0cdd1	-0.31407025
20	0xbd14ae65	-0.036299128
21	0xbe5ee9ef	-0.21768926
22	0xbe293aa6	-0.16526279
23	0x3d67b624	0.056570187
24	0x3dc9eaef	0.09859263
25	0xbe803b85	-0.2504541
26	0xbdc44649	-0.09583718
27	0x3c6eb3ed	0.014569265
28	0x3ed3a6c9	0.41338184
29	0xbe90312a	-0.2816251
30	0x3e5b2a07	0.21402751
31	0x3e9aacd5	0.30209985

encoder.conv.1.running_var f4 [32]
0	0x3d9e2683	0.07722189
1	0x3ce7636e	0.028245654
2	0x3d8a83e2	0.06763436
3	0x3d424fec	0.0474395
4	0x3cbd29f6	0.023091298
5	0x3d6ee8f9	0.05832765
6	0x3d97875e	0.07398866
7	0x3c72c908	0.014818437
8	0x3d99034e	0.074713334
9	0x3ce3514f	0.027748732
10	0x3d39723d	0.04527496
11	0x3d95b502	0.07309915
12	0x3ca59489	0.020212429
13	0x3d4ac90f	0.04950815
14	0x3dbffb19	0.09374065
15	0x3cfb3eda	0.030669618
16	0x3c9c0c72	0.019048903
17	0x3cdc725e	0.026910003
18	0x3c51c48a	0.012803206
19	0x3c3ba422	0.0114527065
20	0x3d4c156a	0.04982511
21	0x3ddd6546	0.10810332
22	0x3cce2188	0.025162473
23	0x3d8b48fc	0.0680103
24	0x3d5f456f	0.054509576
25	0x3dca5b35	0.098806776
26	0x3c800168	0.01562567
27	0x3ca7505b	0.020424059
28	0x3d1c57ae	0.038169555
29	0x3c511865	0.012762164
30	0x3c4ba2b6	0.01242893
31	0x3e1adc77	0.15123163

encoder.conv.3.weight f4 [64, 32, 3, 3]
0	0x3d64f5dc	0.055898532
1	0xbd3a9615	-0.045553286
2	0x3d8ba732	0.06818999
3	0xbd612551	-0.05496723
4	0xbc390b36	-0.011294177
5	0xbdc66d66	-0.09688835
6	0xbd92583c	-0.071457356
7	0xbdc6b060	-0.097016096
8	0xbe8b18fa	-0.27167493
9	0xba004ec3	-0.0004894549
10	0x3d37d3ee	0.044879846
11	0x3d4ef319	0.050524805
12	0xba808786	-0.0009806014
13	0xbd6c2139	-0.05764887
14	0xbe90a9d5	-0.28254572
15	0x3abc62d9	0.0014372721
16	0xbd20c6cc	-0.039252087
17	0xbdabe813	-0.08393874
18	0x3c3483eb	0.01101778
19	0xbab4ab96	-0.0013784047
20	0xbc9ecd82	-0.019385103
21	0xbd87416c	-0.06604275
22	0xb9b4c278	-0.00034477166
23	0xbdee0b36	-0.11623232
24	0x3cfa463c	0.030551068
25	0xbcf14ea9	-0.029456453
26	0xbe5fc4d3	-0.21852426
27	0xbb850ccd	-0.004060364
28	0xbc67a55c	-0.014138546
29	0xbc088103	-0.00833154
30	0xbd74b1b8	-0.0597398
31	0xbcf2a909	-0.029621618
32	0xbdb8217b	-0.08990761
33	0xbddb40e8	-0.10705739
34	0xbec73acc	-0.38912046
35	0xbe0a474d	-0.13503762
36	0x3da41e0c	0.080135435
37	0x3d7cb08d	0.06169181
38	0xbabdab79	-0.0014470658
39	0xbcf2ebb8	-0.029653415
40	0x3bda48af	0.0066614966
41	0x3a0fee47	0.0005490523
42	0x3c0c5f3d	0.008567628
43	0xbd5e36f0	-0.05425161
44	0xbe2a014d	-0.16602059
45	0x3c2d9eaf	0.010596915
46	0xbd8a8dd7	-0.06765335
47	0xbd586b6c	-0.05283682
48	0xbd8591b6	-0.06521933
49	0xbcab277a	-0.020892847
50	0xbdf6708c	-0.12033185
51	0xbd79cdf2	-0.06098742
52	0xbdf0782a	-0.117416695
53	0xbec1c963	-0.37848958
54	0xbdcdef9e	-0.10055469
55	0xbb97e2ac	-0.0046351757
56	0xbca4f7ca	-0.020137686
57	0xbd7e6de4	-0.06211652
58	0xbd165dc7	-0.036710527
59	0xbca8f693	-0.020625388
60	0xbcb40bc2	-0.021978263
61	0xbd5f31db	-0.054490905
62	0x3badd64d	0.0053050877
63	0xbdf3fdef	-0.11913668
64	0xbce4a402	-0.027910236
65	0x3c67e184	0.014152888
66	0xbd673a72	-0.056452222
67	0xbdd84a8a	-0.10561092
68	0x3a73b377	0.00092964567
69	0xbd35c7a7	-0.044379856
70	0xbd41b321	-0.04728997
71	0xbd20bed2	-0.03924448
72	0xbd324006	-0.04351809
73	0xbd32239f	-0.043491002
74	0x3dbc9cef	0.0920962
75	0xbdca0ff6	-0.098663256
76	0xbdd6a117	-0.10479944
77	0x3cbb75e4	0.022883363
78	0xbbda2766	-0.0066575287
79	0xbd8611e4	-0.06546381
80	0xbce72a84	-0.028218515
81	0xbd3a0811	-0.04541785
82	0xbbc3b50e	-0.005972511
83	0xbd93839b	-0.07202836
84	0xbc55c120	-0.013046533
85	0x3e1ab35a	0.1510748
86	0x3aee3699	0.001817423
87	0x3dce9a0c	0.10087976
88	0xbdc438b0	-0.09581125
89	0x3d3d3f03	0.04620267
90	0xbd8755e2	-0.06608178
91	0xbc89a856	-0.016803902
92	0x3cf8ae9c	0.030356698
93	0xbdcff28b	-0.10153683
94	0xbd8c0181	-0.06836224
95	0x3db54d8e	0.08852683
96	0xbcac5993	-0.021038806
97	0x3ba25d9c	0.0049550068
98	0x3dd26af5	0.10274307
99	0xbd793763	-0.060843837
100	0x3cb7ef86	0.02245308
101	0x3db0a2f0	0.08624828
102	0xbd6841c8	-0.05670336
103	0xbda17686	-0.07883935
104	0x3d73cb5b	0.059520107
105	0x3a35174f	0.00069080753
106	0xbd0d5af7	-0.03451058
107	0x3df163cc	0.11786613
108	0x3c96b07e	0.018394705
109	0xbd51c2c2	-0.051211126
110	0xbd98c7cd	-0.07459984
111	0xbd9f0b68	-0.077658474
112	0x3b1a6b49	0.0023562482
113	0xbc5abc99	-0.013350629
114	0xbdc39282	-0.095494285
115	0xbe899abb	-0.26875862
116	0xbdd89db8	-0.105769575
117	0xbd7da5bf	-0.061925646
118	0xbd912cc4	-0.070886165
119	0xbc7f981c	-0.015600231
120	0xbe09220c	-0.13391894
121	0xbe3634a1	-0.17793514
122	0xbcbf3b77	-0.023343785
123	0xbc80cdfe	-0.015723225
124	0x3ce04e51	0.027381094
125	0x3df035a6	0.117289826
126	0xbd5772e9	-0.05259982
127	0x3d1a642b	0.037693184
128	0xbd2ff222	-0.042955525
129	0xbd58d895	-0.052940924
130	0xbe52a5fa	-0.20571128
131	0xbe1d153c	-0.15340132
132	0xbd964e4d	-0.073391534
133	0xbe9f7e6b	-0.31151137
134	0xbd56f43f	-0.052479025
135	0xbb41e4c9	-0.002958583
136	0x3c396278	0.011314981
137	0x3cd884b0	0.026430458
138	0x3c1e9934	0.009680081
139	0x3ce5e573	0.028063511
140	0xbd1da979	-0.0384917
141	0x3b46d489	0.0030339083
142	0xbd19fbe9	-0.037593756
143	0x3db7f973	0.089831255
144	0xbc65f1e4	-0.014034722
145	0x3d63ea2c	0.055643246
146	0x3cce01ab	0.02514728
147	0xbd068b57	-0.03284773
148	0xbdd97fa8	-0.106200516
149	0xbe53e1cc	-0.20691603
150	0xbd8e7166	-0.06955223
151	0xbe8bdfee	-0.27319282
152	0xbcedf2de	-0.029046472
153	0x3d4cb917	0.049981203
154	0x3cdc5a66	0.026898574
155	0x3ba7cb18	0.005120646
156	0x3c5b89cc	0.013399553
157	0x3d44a045	0.048004407
158	0xbc51ff1d	-0.012817171
159	0x3cf98868	0.030460551
160	0x3e0fb810	0.14035058
161	0x3d5d3ae6	0.054011248
162	0xbce15bb5	-0.02750955
163	0xbda50841	-0.08058215
164	0xbcd58697	-0.026065154
165	0xbc8d74bb	-0.017267575
166	0x3c217609	0.009854802
167	0xbd806afd	-0.062704064
168	0xbd2bd7eb	-0.041953962
169	0x3cb53a4d	0.022122527
170	0x3da1eee6	0.079068944
171	0x3d225222	0.03962911
172	0xbc5c4c39	-0.013445907
173	0xbd76e30d	-0.060275126
174	0x3ba10951	0.0049144407
175	0x3b9cfbd6	0.0047907634
176	0xbbbeac9b	-0.005818916
177	0xbd119851	-0.03554565
178	0xbe71a03b	-0.2359628
179	0xbe5b2a49	-0.2140285
180	0xbd40a0e0	-0.047028422
181	0xbd59cc89	-0.053173576
182	0x3dabb269	0.083836384
183	0xbdb7e558	-0.08979291
184	0xbd0cea6f	-0.03440326
185	0xbd9c9ef7	-0.07647508
186	0x3d1f46ae	0.038885765
187	0xbcabd4e3	-0.020975536
188	0x3e04bf0f	0.12963508
189	0x3c9cff4c	0.019164704
190	0xbcd23cd5	-0.025663773
191	0xbd7838e1	-0.06060112
192	0x3d116f73	0.035506677
193	0xbe2e520f	-0.1702349
194	0xbe29f9d1	-0.16599204
195	0xbdcc10c0	-0.09964132
196	0xbe67092b	-0.22562091
197	0xbd875399	-0.06607742
198	0xbd21090d	-0.039315272
199	0xbcdb0fc3	-0.026740914
200	0xbddb1699	-0.106976695
201	0x3d86f6d0	0.065900445
202	0xbd976cb7	-0.073937826
203	0xbc51ca86	-0.012804633
204	0xbd3ea543	-0.046544325
205	0xbec7f2fe	-0.39052576
206	0xbd1e70af	-0.038681682
207	0xbd2cc092	-0.042175837
208	0xbd177a17	-0.03698167
209	0xbd2e10be	-0.042496435
210	0xbd750a2d	-0.059824158
211	0xbd9295a4	-0.07157448
212	0xbd76e652	-0.060278244
213	0xbde2a852	-0.11067261
214	0xbe588b6d	-0.21146937
215	0xbe87caa0	-0.26521778
216	0xba50336f	-0.00079422345
217	0xbd04daf7	-0.032435384
218	0xbde929e3	-0.113849424
219	0xbd868237	-0.06567805
220	0xbc6da7b2	-0.014505314
221	0x3d4cd134	0.0500042
222	0xbdfa6386	-0.12226014
223	0xbeb02ddb	-0.34409985
224	0xbe7970aa	-0.24359384
225	0xbba5a394	-0.0050549004
226	0xbc4ddf94	-0.012565512
227	0xbb180670	-0.0023197196
228	0xbda7881e	-0.08180259
229	0xbe07ca7a	-0.13260832
230	0xbde47395	-0.11154858
231	0xbde969a7	-0.11397105
232	0xbe9d6e04	-0.30747998
233	0xbe241c0c	-0.16026324
234	0xbcd7e195	-0.026352683
235	0x3d0b60a9	0.03402773
236	0x3ddb9476	0.10721676
237	0xbd436c61	-0.04771078
238	0xbc8f2bbd	-0.01747691
239	0xbcc017c5	-0.023448834
240	0x3ccd631e	0.025071677
241	0xbd5fee4c	-0.054670617
242	0x3da4e07f	0.08050632
243	0xbc4aa59e	-0.012368588
244	0xbb97224b	-0.0046122423
245	0xbdf473d1	-0.11936153
246	0x3d97bcc9	0.07409055
247	0xbe3aec79	-0.1825427
248	0xbb7012db	-0.0036632332
249	0xbd8ff8e7	-0.07029896
250	0xbdc99596	-0.098429844
251	0x3bff290e	0.0077868765
252	0x3c52180d	0.012823117
253	0xbd580d7c	-0.052747235
254	0xbd9c128b	-0.07620724
255	0x3aac0f07	0.0013127037

encoder.conv.3.bias f4 [64]
0	0xbc5e12f8	-0.013554327
1	0x3c4ae9b5	0.012384822
2	0xbd9c6831	-0.076370604
3	0x3d803a61	0.06261135
4	0x3d9ade44	0.07561925
5	0x3d770ab3	0.060312938
6	0xbd45af9d	-0.04826318
7	0x3d2523a6	0.0403172
8	0x3d8956ad	0.06705985
9	0xbd1a9f2a	-0.037749447
10	0xbce0acb0	-0.027426094
11	0xbdd2201a	-0.10260029
12	0x3dc2847f	0.09497928
13	0x3cc553a9	0.024087744
14	0xbd073ee3	-0.033018958
15	0xbd4537ee	-0.04814904
16	0xbdd2d5ce	-0.10294686
17	0x3dac51ae	0.08414017
18	0x3d3d048b	0.04614691
19	0x3d08f5cc	0.033437535
20	0x3d1a532a	0.037676968
21	0x3d1b3e4c	0.037901208
22	0x3d0a8c51	0.033825222
23	0xbe17286f	-0.14761518
24	0x3d3a140c	0.045429274
25	0x3b737e98	0.0037154313
26	0x3d643d18	0.055722326
27	0x3d970482	0.07373907
28	0x3dbbb180	0.09164715
29	0xbdaab1c2	-0.08334686
30	0xbb60238b	-0.0034200873
31	0x3d098735	0.03357621
32	0xbd0098f0	-0.031395853
33	0xbda52399	-0.0806343
34	0x3d05207c	0.032501683
35	0xbd8ecbcb	-0.06972464
36	0xbc6b1388	-0.014347918
37	0xbcef0595	-0.029177466
38	0xbc637859	-0.013883674
39	0x3c54b097	0.012981555
40	0x3c0fd4ab	0.008778731
41	0x3d66cbb7	0.05634662
42	0xbc0b4f6b	-0.008502821
43	0xbd1a0b1b	-0.037608247
44	0xbd4abc25	-0.049495835
45	0x3cfd4f81	0.0309217
46	0x3da227be	0.079177365
47	0x3d45daaa	0.048304237
48	0x3cfdce2d	0.030982101
49	0x3debbbc3	0.11510422
50	0x3ccf4bf6	0.025304776
51	0xbd41f20f	-0.047349986
52	0xbd4c97e3	-0.049949538
53	0x3d81e56e	0.06342588
54	0xbcc9d7bb	-0.024639001
55	0xbdbdd407	-0.09268957
56	0xbdb29b19	-0.08720989
57	0xbd5f09f9	-0.05445287
58	0xbb118e52	-0.0022210074
59	0x3df1a6ae	0.1179937
60	0x3ce4ba66	0.027920913
61	0xba0614b7	-0.0005114781
62	0xbdb19c3d	-0.08672378
63	0x3c3469c7	0.011011547

encoder.conv.4.weight f4 [64]
0	0x3f338ce3	0.7013685
1	0x3ef61b48	0.4806769
2	0x3f1690e6	0.5881485
3	0x3f1b6894	0.6070645
4	0x3f0386f4	0.513778
5	0x3e7d5352	0.24738815
6	0x3f04e5f2	0.5191337
7	0x3ef87e68	0.4853394
8	0x3e793b6d	0.24339075
9	0x3f0ecf17	0.55784744
10	0x3f134fa2	0.57543385
11	0x3ef799f8	0.48359656
12	0x3f0ca89c	0.5494478
13	0x3eef5442	0.4674397
14	0x3ec359b4	0.38154376
15	0x3ef79e3f	0.4836292
16	0x3f143736	0.57896745
17	0x3e8b4cf1	0.2720714
18	0x3f0e735f	0.5564479
19	0x3f094ed1	0.5363589
20	0x3f1fa83e	0.6236609
21	0x3ef364d8	0.47537875
22	0x3ecb3a11	0.3969274
23	0x3f050c5c	0.51971984
24	0x3f0f091f	0.5587329
25	0x3f14152a	0.57844794
26	0x3f02f7cb	0.5115935
27	0x3f00032c	0.5000484
28	0x3f1ebcf0	0.62007046
29	0x3e7f3bc7	0.24925147
30	0x3f18b5d1	0.5965243
31	0x3f0c1aa0	0.54728127
32	0x3f079c19	0.5297256
33	0x3ec1cc7f	0.3785133
34	0x3f05bb4b	0.5223891
35	0x3f0b0e26	0.54318464
36	0x3f10d1d1	0.56570154
37	0x3e806f79	0.25085047
38	0x3f0928ff	0.5357818
39	0x3ef761d5	0.48316827
40	0x3ef1a89a	0.47198945
41	0x3f11ec19	0.5700088
42	0x3ee5f443	0.4491292
43	0x3e90e77f	0.28301618
44	0x3ea78e5d	0.32725802
45	0x3f088a07	0.53335613
46	0x3f1ca1b0	0.61184216
47	0x3f15d269	0.58524185
48	0x3e7c8fdb	0.24664252
49	0x3f12f70e	0.57408226
50	0x3e88c28d	0.2671093
51	0x3f05b4f0	0.52229214
52	0x3effc993	0.49958476
53	0x3f04ff58	0.51952124
54	0x3e940d61	0.28916457
55	0x3e8d3b6d	0.275844
56	0x3f0785b0	0.52938366
57	0x3f139111	0.5764323
58	0x3ef73552	0.48282868
59	0x3f0b75fa	0.5447689
60	0x3ed55527	0.4166653
61	0x3ea8fb3c	0.33004177
62	0x3f34fd99	0.7069946
63	0x3ea0f8c2	0.31439787

encoder.conv.4.bias f4 [64]
0	0xbdeebfb3	-0.116576575
1	0xbee39f02	-0.4445725
2	0xbea85051	-0.32873777
3	0xbeac121a	-0.3360756
4	0xbed93946	-0.4242651
5	0xbf043673	-0.5164558
6	0xbead449f	-0.33841416
7	0xbeecdfa7	-0.46264383
8	0xbf17d136	-0.59303606
9	0xbeaf57f4	-0.3424679
10	0xbeb114c2	-0.3458615
11	0xbecd8eac	-0.40147913
12	0xbeae9b34	-0.34102786
13	0xbeed851a	-0.4639061
14	0xbed1f9ca	-0.41010886
15	0xbeea50c9	-0.4576476
16	0xbeb2b9ff	-0.3490753
17	0xbf052062	-0.5200254
18	0xbe94f891	-0.2909589
19	0xbec3676d	-0.38164845
20	0xbea78275	-0.32716718
21	0xbee89136	-0.45423287
22	0xbeca64a1	-0.395299
23	0xbe8cd885	-0.2750894
24	0xbed66d74	-0.4188038
25	0xbe97a513	-0.2961813
26	0xbee2dd7d	-0.44309607
27	0xbebc536c	-0.36782396
28	0xbe9a706e	-0.30163902
29	0xbf02bf38	-0.51073027
30	0xbea107b8	-0.314512
31	0xbed85d05	-0.42258468
32	0xbebb0b97	-0.3653228
33	0xbebbe946	-0.3670141
34	0xbea02e14	-0.31285155
35	0xbedab5b2	-0.42716748
36	0xbecb3b10	-0.396935
37	0xbf1c7577	-0.6111674
38	0xbecf8fb9	-0.4053934
39	0xbef69bf6	-0.48165864
40	0xbec5f8c4	-0.38666356
41	0xbeb4c8b0	-0.35309362
42	0xbeeb373f	-0.45940587
43	0xbef2f3ad	-0.47451535
44	0xbefa433a	-0.48879415
45	0xbedf8da1	-0.43662742
46	0xbeaa304a	-0.33239967
47	0xbea61248	-0.32435822
48	0xbf13066c	-0.57431674
49	0xbe8da7a5	-0.27666965
50	0xbf1a3781	-0.6024094
51	0xbecccdf7	-0.4000089
52	0xbee761e7	-0.4519188
53	0xbed6d95b	-0.41962704
54	0xbed9b94d	-0.42524186
55	0xbf12471d	-0.5713976
56	0xbecf12ab	-0.4044393
57	0xbeba243a	-0.36355764
58	0xbefa5c8d	-0.48898736
59	0xbec7121a	-0.38880998
60	0xbea4aa27	-0.32161066
61	0xbed3a6d9	-0.41338232
62	0xbe29fb2a	-0.16599718
63	0xbee40c1e	-0.44540495

encoder.conv.4.running_mean f4 [64]
0	0xc0753529	-3.8313696
1	0xbf1df10c	-0.61695933
2	0xc064d3c5	-3.5754254
3	0xc02d5228	-2.7081394
4	0xbf96f630	-1.179388
5	0x3f05e98c	0.5230949
6	0xc02d692d	-2.7095444
7	0xbf9c74ff	-1.2223204
8	0x400a2d0f	2.1590002
9	0xc00f93a0	-2.2433853
10	0xbfd1b06c	-1.6381965
11	0xbff73b52	-1.9314978
12	0xbfa7b6dd	-1.310268
13	0xbe1c2a0d	-0.15250416
14	0xbf332643	-0.6998026
15	0xbf1f7dd2	-0.6230136
16	0xc089dd0d	-4.3082337
17	0x3ed31e53	0.41234073
18	0xc01a8f70	-2.4150047
19	0xc013c0bf	-2.3086393
20	0xbf92ddfb	-1.1473993
21	0xbff24a08	-1.8928843
22	0xbe550ffc	-0.20806879
23	0xbe1b4cbc	-0.1516599
24	0xbfa64841	-1.29908
25	0xbfb3ffb5	-1.406241
26	0xbe7946d9	-0.24343432
27	0xc021d984	-2.528901
28	0xbf47d057	-0.78052276
29	0xc00c3025	-2.1904385
30	0xc0175087	-2.36429
31	0xbf78945f	-0.97101396
32	0xc0019720	-2.024849
33	0xbfd50c9c	-1.6644473
34	0xc01852d5	-2.3800557
35	0xbf81f36a	-1.0152409
36	0xc0262468	-2.595972
37	0x405cae3a	3.448134
38	0xbf4f1e38	-0.80905485
39	0xbf548246	-0.8301128
40	0xbeb0e03a	-0.3454607
41	0xc030166c	-2.7513685
42	0xc00b8ebe	-2.1805873
43	0xc070f77b	-3.765105
44	0xc095165b	-4.658979
45	0xbfcf505c	-1.6196399
46	0xbf03cd9c	-0.5148561
47	0xbf611809	-0.879273
48	0x3fd6bb2a	1.6775868
49	0xbef3097a	-0.47468168
50	0x3f21ecec	0.6325214
51	0xbff887fc	-1.9416499
52	0xbfa2f6e2	-1.2731593
53	0xbfbb0843	-1.4611896
54	0x3f0d3b03	0.5516817
55	0x401b36d8	2.4252224
56	0xbfe797d1	-1.8093206
57	0xbfa9cb0a	-1.3265088
58	0xbfa5fcc7	-1.2967767
59	0xbf615070	-0.8801336
60	0xc00a0c40	-2.1569977
61	0xc080cd05	-4.025027
62	0xbe93cd52	-0.28867584
63	0xbf888945	-1.0666891

encoder.conv.4.running_var f4 [64]
0	0x42181a1e	38.025505
1	0x4164bf11	14.296647
2	0x41c3a951	24.457674
3	0x4182bb0d	16.341333
4	0x4183ce2e	16.475674
5	0x409320df	4.5977626
6	0x4140f2cf	12.059279
7	0x41b09130	22.070892
8	0x412c0c9e	10.75308
9	0x4199b8ae	19.215176
10	0x41b76c78	22.927963
11	0x415204ad	13.126142
12	0x419a7587	19.307386
13	0x4196601a	18.796925
14	0x40f62525	7.6920342
15	0x41c389f9	24.44237
16	0x41239d0a	10.22584
17	0x40d6213d	6.6915574
18	0x419e3d1d	19.77984
19	0x419622d8	18.767014
20	0x4175bc7c	15.358517
21	0x41da060b	27.25295
22	0x4192ce14	18.350624
23	0x41838c04	16.443367
24	0x41434958	12.205406
25	0x419e7f58	19.81218
26	0x41f1a1fc	30.204094
27	0x41875a5a	16.919117
28	0x41a0379f	20.027159
29	0x40d33c84	6.601137
30	0x415b02a6	13.688147
31	0x41162dda	9.386194
32	0x41de4a7d	27.786371
33	0x41410fd9	12.066369
34	0x418beb4c	17.489891
35	0x413eab61	11.916841
36	0x41496102	12.586184
37	0x407e54f2	3.9739347
38	0x414b7d57	12.718101
39	0x41a251d0	20.289948
40	0x41bab8ef	23.3403
41	0x418c93b4	17.57212
42	0x41e039c6	28.02821
43	0x407af641	3.9212801
44	0x40e319cc	7.096899
45	0x4163bead	14.234052
46	0x416248c7	14.142768
47	0x41878e27	16.94441
48	0x40e9592f	7.2921367
49	0x4166a87d	14.416135
50	0x40eb3a10	7.3508377
51	0x41c6a83e	24.83215
52	0x41abb0a0	21.461243
53	0x414a4fbc	12.644466
54	0x4108430c	8.516369
55	0x40c3729d	6.107741
56	0x416fb962	14.982759
57	0x415919c0	13.568787
58	0x41c65ebc	24.796257
59	0x41402288	12.0084305
60	0x41262ee6	10.38645
61	0x40c67171	6.201348
62	0x415e517f	13.8948965
63	0x40f3c1a2	7.617387

encoder.mu.weight f4 [20, 3136]
0	0xbbcd8c19	-0.0062728045
1	0x3c257f3a	0.010101134
2	0xbacf8929	-0.0015833724
3	0xbb69228d	-0.0035573572
4	0xbc028bd9	-0.007967913
5	0x3add03c0	0.001686208
6	0xbc32436b	-0.0108803315
7	0x3b9d1dfc	0.004794834
8	0x3ab19849	0.0013549413
9	0x3bb44834	0.0055017713
10	0x3c06f1e0	0.008236378
11	0x3b84ef19	0.004056823
12	0x3a59ec17	0.0008313073
13	0xb99b4d29	-0.00029621393
14	0x3bbdde9f	0.005794361
15	0xbbd57b5d	-0.00651495
16	0x3b1230bd	0.0022306882
17	0xbc2c6993	-0.010523218
18	0x3ba72cc8	0.005101774
19	0x3c0a6453	0.008446771
20	0xbafdb6b7	-0.0019356821
21	0xbb0d3f09	-0.0021552464
22	0x3c09472d	0.008378786
23	0xbc2902b0	-0.010315582
24	0xbbe82860	-0.007084891
25	0x3aea5c70	0.0017880332
26	0x3b00db38	0.0019661915
27	0x3acb498d	0.0015509591
28	0xbb005e0a	-0.0019587302
29	0x3c1096c4	0.008825008
30	0xbae336ef	-0.0017335097
31	0x3b777682	0.0037759845
32	0xbc06de3f	-0.008231699
33	0xbba316e3	-0.0049770935
34	0xbad121be	-0.001595549
35	0xbc36864b	-0.011140416
36	0xbba82615	-0.005131493
37	0xbb68e97f	-0.0035539565
38	0xbbbb3bb3	-0.005713904
39	0x3bb25ecf	0.005443431
40	0x3a9b74c7	0.0011860364
41	0xbba68884	-0.005082192
42	0x39f7d548	0.00047270418
43	0xbad41b35	-0.0016182425
44	0x3a9f1a62	0.00121386
45	0xbb6e9450	-0.003640432
46	0xbb95db24	-0.0045732427
47	0xbb87c991	-0.0041439016
48	0x3b14a2c7	0.002268003
49	0x3c99e5fd	0.018786425
50	0x3ceb08a2	0.02869064
51	0x3ce15e0f	0.027510671
52	0x3d45046e	0.048099928
53	0xbd9c345a	-0.07627173
54	0xbcf79930	-0.030224413
55	0x3cc13466	0.023584556
56	0x3ce9a7a7	0.028522326
57	0xbcd36354	-0.0258042
58	0xbce0c1df	-0.027436195
59	0xbd4ac50a	-0.049504317
60	0xbb85586f	-0.00406938
61	0xbd8d5adc	-0.06902096
62	0x3db0e472	0.086373225
63	0x3c0db3ef	0.008648857
64	0xbcb78e48	-0.022406712
65	0x3bcc840b	0.0062413267
66	0xbbdb05cc	-0.0066840407
67	0x3ccc76e8	0.024959043
68	0x3b769446	0.0037625
69	0x3d1f19d3	0.038842987
70	0x3d134b02	0.035960205
71	0xbc94b6e8	-0.018153623
72	0x3c807374	0.015680052
73	0xba0ddc31	-0.0005411534
74	0x3ccafaf7	0.024777872
75	0xbd598ad6	-0.05311092
76	0xbbfe5baf	-0.0077623944
77	0x3d23f9cb	0.040033143
78	0xbc1add16	-0.009452125
79	0x3b0453b1	0.0020191486
80	0xbbde1301	-0.006777168
81	0xbcc30cd4	-0.023809828
82	0x3ce09396	0.027414124
83	0x3d5777dc	0.05260454
84	0x3c94cb3b	0.018163314
85	0xbc9482c5	-0.018128762
86	0xbc44fd46	-0.012023276
87	0xb94cc033	-0.00019526556
88	0xbb1d6047	-0.0024013685
89	0x3cb0a2cb	0.021562
90	0x3cdf8fb4	0.027290203
91	0xbc6ad892	-0.014333861
92	0x3b2fb4f9	0.002681075
93	0xbb756c25	-0.0037448492
94	0xbb2dcc8a	-0.002651962
95	0xbb8dcb67	-0.004327226
96	0xb632c2eb	-2.6637524e-06
97	0xbca36e9f	-0.01995021
98	0x3bb59483	0.0055413856
99	0x3a0fed27	0.00054903555
100	0xbd324b27	-0.043528702
101	0xbd02251c	-0.03177367
102	0xbcdf070e	-0.027225044
103	0xbd239e43	-0.039945852
104	0xbcc511c2	-0.02405632
105	0x3c9872ed	0.018609488
106	0xbbeb1b60	-0.007174894
107	0xbb513774	-0.0031923922
108	0xbbacd756	-0.0052746935
109	0xbbbb0b66	-0.005708146
110	0x39e4157f	0.00043503565
111	0xbb96b3ba	-0.004599062
112	0xbc87eb6e	-0.016591754
113	0x3c011b19	0.007879996
114	0xbbe14c10	-0.0068755224
115	0x3bc05d50	0.0058704987
116	0xb9cd3f47	-0.00039147792
117	0x3b150535	0.00227387
118	0xbc49d6e7	-0.012319303
119	0x3d00cdd7	0.031446304
120	0x3ba29636	0.004961754
121	0x3c33a152	0.010963755
122	0xbc180e30	-0.009280726
123	0xbb9ef109	-0.004850511
124	0x3c5c30af	0.013439341
125	0x3cb6edf4	0.022330262
126	0xbd493ae9	-0.049128447
127	0x3b38d51c	0.0028203195
128	0xbc592c1e	-0.013255147
129	0xbc40481a	-0.01173594
130	0xba7ebe9e	-0.0009717735
131	0x3c3c3598	0.011487387
132	0xbc02ac43	-0.007975641
133	0xbc2cd3d6	-0.0105485525
134	0xbbc7a034	-0.0060920957
135	0xbb376e2b	-0.002798925
136	0xbc694ab0	-0.014238998
137	0xbc63e804	-0.013910297
138	0x3cdf4a82	0.027257208
139	0x3cc4e685	0.024035702
140	0x3c737bda	0.0148610715
141	0x3cc40a77	0.023930771
142	0x3b4cd45a	0.00312545
143	0x3c52a177	0.012855879
144	0xbcca80bb	-0.024719587
145	0x3d286e9d	0.041121114
146	0x3b353634	0.0027650716
147	0x3bf5b881	0.007498801
148	0x3b216e50	0.0024632402
149	0x3b9d80a6	0.004806596
150	0x3c0c10ed	0.008548957
151	0x3b9d0e6e	0.00479298
152	0x3b298bfd	0.0025870793
153	0xbcae2d00	-0.021261692
154	0xbb349e97	-0.0027560347
155	0xbd02bde6	-0.031919383
156	0x3ba75abc	0.005107252
157	0x3c43ff65	0.011962746
158	0x3c3ec5cf	0.011643841
159	0xbc8c5a3f	-0.017132876
160	0xbd4e252c	-0.05032842
161	0xbc6e67af	-0.014551087
162	0xbb7bb750	-0.0038408823
163	0x3c20fa52	0.009825306
164	0xbc133a25	-0.008986031
165	0xbcd7eda8	-0.02635844
166	0x3c870cb8	0.016485557
167	0xbcb318a3	-0.021862334
168	0xbb80fc09	-0.003936295
169	0x3c2070ed	0.009792549
170	0x3bab8275	0.0052340575
171	0x3c83fc39	0.01611148
172	0x3c964617	0.018343968
173	0xbc6366b0	-0.013879463
174	0xbbf75857	-0.0075483727
175	0xbc65c78f	-0.014024629
176	0x3cc59343	0.024118071
177	0xbca95caf	-0.020674078
178	0x3c165d4a	0.009177515
179	0x3c067777	0.008207194
180	0xbbc19f02	-0.005908848
181	0x3ca1e6e5	0.01976342
182	0xbbe01206	-0.006838086
183	0x3b434209	0.0029793999
184	0x3ba14df6	0.0049226237
185	0x3c08250e	0.008309616
186	0x3a857ddc	0.0010184604
187	0x3b68b951	0.0035510848
188	0xbc97127a	-0.018441427
189	0x3c461c3e	0.012091694
190	0xbc05230e	-0.0081260335
191	0xbbb25bda	-0.0054430785
192	0x3c0dde2d	0.008658928
193	0x3c3863a3	0.011254224
194	0x3c3a548e	0.0113726985
195	0x3bdb439b	0.006691409
196	0x3c4919fb	0.012274261
197	0x3ca5b3a1	0.020227255
198	0x3bd3f55d	0.0064684586
199	0x3b553b6a	0.0032536634
200	0xbc9e3298	-0.019311234
201	0xbc020eba	-0.007938081
202	0xbb24626e	-0.0025083083
203	0x3c486ad2	0.012232499
204	0x3ca31964	0.019909568
205	0x3cad233f	0.02113497
206	0x3b857dc9	0.0040738326
207	0xbbfd7bc4	-0.0077357013
208	0xbb85fe1a	-0.004089129
209	0xbca230fa	-0.019798744
210	0x3cb78802	0.02240372
211	0xbb703c10	-0.0036656894
212	0xbc606ce8	-0.01369784
213	0xbbbf8cc7	-0.0058456394
214	0xbc45dd0a	-0.012076626
215	0x3ac571b2	0.0015063791
216	0xbc4b6981	-0.012415291
217	0x3af3e327	0.0018607125
218	0x3ce0020c	0.027344726
219	0x3c4358f2	0.011923062
220	0x3ced05fb	0.028933516
221	0xbd1e12b7	-0.038592067
222	0x3c63a3f5	0.013894071
223	0x3c7618ef	0.015020593
224	0xbb1480f6	-0.0022659875
225	0x3d246a53	0.04014046
226	0x3c3f4db7	0.0116762435
227	0x3c60b1e3	0.0137142865
228	0xbaaa81d9	-0.0013008668
229	0x3ccf6a2d	0.025319183
230	0xbd04fc64	-0.03246726
231	0x3cfc3f82	0.030792002
232	0xb9f2a5a5	-0.00046281252
233	0x3bb8d571	0.0056406786
234	0xbc145cd9	-0.00905534
235	0x3b475998	0.0030418392
236	0xbc5e3def	-0.013564571
237	0xbc99eef0	-0.018790692
238	0x3ba3b00f	0.004995353
239	0xbc5c9d1f	-0.013465195
240	0x3c84253a	0.016131032
241	0xbc93d4da	-0.018045831
242	0xbc1db629	-0.00962595
243	0x3be40bcb	0.0069594136
244	0x3c64d50d	0.013966811
245	0x3bf169b8	0.007367339
246	0x3bccf221	0.00625445
247	0x3aa0ace0	0.0012258552
248	0xbce8a5c9	-0.028399365
249	0x3c0de866	0.008661365
250	0xbb237c95	-0.0024946083
251	0x3c12a24e	0.008949829
252	0x3c861e1b	0.016371777
253	0x3caef447	0.021356715
254	0xbc769b9f	-0.015051751
255	0x3b952a08	0.0045521297

encoder.mu.bias f4 [20]
0	0x3c0ecb58	0.008715473
1	0x3c65434e	0.0139930975
2	0xbaa8d9da	-0.0012882308
3	0x3b6b1715	0.0035871912
4	0xbbbdd7f3	-0.0057935654
5	0xbaabb063	-0.0013098832
6	0x3c449379	0.011998051
7	0xbd75407d	-0.059875954
8	0xbdba42e3	-0.09094789
9	0xbcce44f7	-0.02517937
10	0xbc70b57d	-0.014691708
11	0xbbc4672e	-0.0059937453
12	0x3c193cdd	0.00935289
13	0xbc02bc98	-0.007979535
14	0x3c38ee6e	0.011287315
15	0x3984e404	0.00025346887
16	0x3c1611b2	0.009159492
17	0x3bb16621	0.005413786
18	0xbd0b585b	-0.03401981
19	0x3c525c3f	0.012839376

encoder.logvar.weight f4 [20, 3136]
0	0xba8567d7	-0.0010178041
1	0x3b9a7a66	0.004714298
2	0x3b810fcb	0.0039386502
3	0x3b695746	0.0035604998
4	0xbb90d7ba	-0.004420248
5	0x3bc0a112	0.005878576
6	0xbb8f151b	-0.0043665296
7	0xbc0a1eca	-0.008430192
8	0x3be75eab	0.007060846
9	0xb8fa7aae	-0.0001194378
10	0x3a583d44	0.00082488754
11	0xb9d0099b	-0.00039680008
12	0xbb6375c9	-0.0034707657
13	0x3aee60b7	0.0018186782
14	0xbb37eefa	-0.0028066025
15	0x3b11c75a	0.0022244067
16	0xba12ea52	-0.00056043745
17	0xbb6b7b5c	-0.0035931682
18	0x3b310752	0.002701242
19	0xb884bc76	-6.329354e-05
20	0x3acbc98d	0.0015547738
21	0x3c0d2169	0.008613923
22	0xbb5cc099	-0.0033684133
23	0xb90fed38	-0.00013725914
24	0x3b2ae5b0	0.0026076846
25	0xbb325bb6	-0.0027215309
26	0x3b0aa82b	0.0021157365
27	0x3a6737e8	0.00088202814
28	0xbba12795	-0.0049180486
29	0x3b44a354	0.0030004578
30	0xbb46d7f2	-0.0030341116
31	0xbba17795	-0.0049275854
32	0x3af41200	0.0018621087
33	0x3b8f5ed5	0.0043753185
34	0x3b4b9cf2	0.0031068888
35	0xbbefd7ec	-0.007319441
36	0x3b95cdd8	0.0045716576
37	0xbbb5c6ca	-0.005547379
38	0x3a869eca	0.0010270712
39	0x3b2587fd	0.0025258057
40	0x3a5a90a8	0.00083375955
41	0xbb9fa0c2	-0.0048714587
42	0x3c083e79	0.008315676
43	0x3b9556a4	0.0045574475
44	0xbba63b8c	-0.0050730165
45	0xba8c42f1	-0.0010701102
46	0xbb162564	-0.002291047
47	0x3a278609	0.0006390517
48	0x3b5a0cd9	0.0033271818
49	0xbc033d1e	-0.008010177
50	0x3c1ae9b6	0.009455135
51	0x3d5b69ab	0.05356757
52	0x3d52f8f4	0.05150695
53	0x3ced5ccd	0.028974915
54	0x3cd52fa2	0.02602369
55	0x3cc5d0a3	0.024147337
56	0x3bd86146	0.006603393
57	0x3c47f84d	0.012205196
58	0xbbcc63be	-0.006237476
59	0x3cc1b62b	0.023646435
60	0x3cfd75c0	0.030939937
61	0x3d967ced	0.073480465
62	0xbb4690ab	-0.0030298631
63	0x3cdf71ca	0.027275939
64	0x3c2e2b7c	0.010630485
65	0x3c8413e2	0.016122762
66	0x3bc71767	0.006075788
67	0x3c432717	0.011911175
68	0x3d4fcb14	0.05073078
69	0x3d2b2ce8	0.041790873
70	0xbcec6a3a	-0.028859247
71	0x3b04fbc1	0.0020291659
72	0x3bcf85cc	0.0063330885
73	0xbc733e6d	-0.014846426
74	0x3d139070	0.03602642
75	0x3c21840e	0.009858144
76	0x3cf346b6	0.029696804
77	0x3c8a99a2	0.016918961
78	0x3c622d47	0.01380474
79	0x3b86e54a	0.004116689
80	0xbcb764a3	-0.022386855
81	0x3c6381e7	0.013885952
82	0xbcf5b345	-0.029992709
83	0x3cf44930	0.029820055
84	0x3c2df790	0.0106181055
85	0x3cce3c62	0.025175277
86	0xb9b12c9f	-0.00033793316
87	0x3bb62af3	0.005559319
88	0xbc3fd50d	-0.01170851
89	0x3c800569	0.01562758
90	0x3c41dcc7	0.011832423
91	0xbc303c6e	-0.010756595
92	0x3cd44d58	0.025915787
93	0xbc24b8e1	-0.010053844
94	0x3b5a238a	0.0033285343
95	0x3c5f296b	0.013620715
96	0x3bf059de	0.0073349318
97	0x3d4f793d	0.05065273
98	0xbd0a870e	-0.033820204
99	0x3caf4447	0.021394862
100	0x3ae64212	0.0017567298
101	0x3ca59afa	0.0202155
102	0xbbd641a3	-0.006538586
103	0xbc100622	-0.008790525
104	0x3cb49d8a	0.022047777
105	0xbadf9275	-0.0017057197
106	0xbc7805d9	-0.015138113
107	0xbac4e136	-0.0015020731
108	0xbaaa8523	-0.0013009649
109	0x3a6d245d	0.0009046251
110	0x3ba1fa5e	0.004943176
111	0x3aff5abf	0.0019482
112	0xbce7e7e7	-0.028308822
113	0xbc06bda7	-0.008223928
114	0xbbad0887	-0.0052805576
115	0x3b6ce801	0.0036149027
116	0xbb2afe14	-0.0026091384
117	0x3af61a27	0.0018776105
118	0xbb668414	-0.003517394
119	0x3c77021e	0.015076188
120	0xbc0f4ef1	-0.008746848
121	0x3b97f607	0.004637483
122	0x3af90c7d	0.0019000914
123	0xbb171163	-0.0023051135
124	0xbb8800af	-0.004150472
125	0xbbda9d62	-0.0066715935
126	0xbb8461b1	-0.004039966
127	0xbbfaf27b	-0.0076583005
128	0xbb430b9f	-0.0029761565
129	0xbb7e7457	-0.0038826668
130	0x3afcb750	0.0019280706
131	0x3b091da8	0.0020922218
132	0x3ae80e82	0.0017704519
133	0xbd4bd2e6	-0.049761675
134	0x3c26aa66	0.010172462
135	0x3beb15dd	0.007174237
136	0xbace250a	-0.0015727591
137	0xbafd879f	-0.0019342786
138	0x3bd7968c	0.006579226
139	0x3c0f6d97	0.008754156
140	0x3d084d6f	0.03327697
141	0x3c90d3b2	0.01767907
142	0x3c96ec6d	0.018423283
143	0xbbedee31	-0.0072610606
144	0x3cee0434	0.029054739
145	0x3ce800d9	0.028320717
146	0x3beaab39	0.0071615246
147	0xbbe0fe94	-0.0068662856
148	0x38cd6751	9.794406e-05
149	0xbb2b0a48	-0.0026098657
150	0xbb70683b	-0.003668322
151	0x3b4d0467	0.0031283142
152	0xbc2cb765	-0.010541772
153	0xbc01635d	-0.007897225
154	0x3d222e5e	0.039595
155	0x3c98b2a4	0.01863987
156	0x3c4d3423	0.012524637
157	0xbc6c3de6	-0.014419055
158	0x3c8fbde5	0.017546603
159	0x3d805018	0.06265277
160	0x3cd47ca6	0.025938343
161	0x3c71a2e1	0.014748306
162	0x3b5d5a84	0.0033775875
163	0xbba3cec0	-0.0049990118
164	0xbb637b2a	-0.0034710863
165	0x3af5e20e	0.0018759386
166	0x39ccdf43	0.00039076255
167	0x3b9e6def	0.0048348824
168	0xbca9c530	-0.02072391
169	0x3b67a42e	0.0035345661
170	0xbc487dc5	-0.012237017
171	0xbbac2b92	-0.0052542174
172	0xbbe5830f	-0.007004149
173	0x3c0aeb64	0.008478973
174	0xbb277dc5	-0.0025557142
175	0x3c2cf98e	0.010557545
176	0xbbc4d818	-0.0060072057
177	0x3bdbaced	0.006703964
178	0xbab0fdd9	-0.0013503387
179	0x3bab2555	0.005222956
180	0xbafa5473	-0.0019098654
181	0x3c265d00	0.010154009
182	0xbcb9e9ce	-0.022694495
183	0xbc3a94ec	-0.011388045
184	0x3b8d8560	0.004318878
185	0x3bb176cc	0.005415773
186	0xbb8c5fb3	-0.004283869
187	0x3be1306e	0.0068722283
188	0x3bc6bb7c	0.0060648303
189	0xbced9d3c	-0.02900564
190	0xbc1d0043	-0.009582582
191	0x3b494598	0.0030711647
192	0xba14bb86	-0.0005673695
193	0x3b566edd	0.0032719888
194	0xbbae2d7d	-0.005315481
195	0x3cb9ba91	0.02267197
196	0xbbb8b3ae	-0.005636654
197	0xbb7f3dbc	-0.0038946709
198	0x3cc16362	0.02360696
199	0x3c85b237	0.016320331
200	0x3c7b615d	0.015343037
201	0x3cbc985a	0.023021866
202	0x3be98d4b	0.007127439
203	0x3b1272a6	0.0022346168
204	0x3c35881f	0.011079817
205	0xbc5c8a78	-0.013460748
206	0xbc1c0a24	-0.009523902
207	0x3d1bfb46	0.03808143
208	0x3ca1a3f4	0.0197315
209	0x3cf36e41	0.02971566
210	0x3b202322	0.0024435003
211	0x3cbcb8bd	0.023037309
212	0xbcb8e653	-0.022570765
213	0xbc7ba010	-0.015357986
214	0x3d076032	0.033050723
215	0xbb020c16	-0.001984363
216	0x3c6961d5	0.014244516
217	0xbc1220b0	-0.008918926
218	0xbb9b79ca	-0.004744743
219	0xbcc4660e	-0.023974445
220	0x3cf16db8	0.029471263
221	0xbbba377e	-0.0056828847
222	0x3a251898	0.0006297915
223	0x3d49e0b3	0.049286555
224	0xbb84b1e8	-0.0040495284
225	0xbc755361	-0.014973492
226	0x3b88fe4a	0.0041807042
227	0x3d316e05	0.043317813
228	0x3cd20b96	0.02564029
229	0x3c836306	0.016038429
230	0x3cb3d7ba	0.021953452
231	0xbc05eab7	-0.008173636
232	0xbc382944	-0.011240307
233	0x3c7c651e	0.015404968
234	0x3cee0637	0.029055698
235	0x3c52ea2c	0.012873214
236	0xbc84d826	-0.016216349
237	0x3cfe5131	0.031044574
238	0x3be231a6	0.006902891
239	0xbb8a81f1	-0.004226916
240	0xbb15b307	-0.0022842304
241	0x3bd664f9	0.0065427986
242	0x3c8930b8	0.016746864
243	0xbc35eceb	-0.011103849
244	0xbaed4d03	-0.0018104616
245	0x3bfaad4a	0.007650052
246	0xbaaf16ca	-0.0013358232
247	0xbc996ca9	-0.018728571
248	0x3b0889cb	0.0020834084
249	0x3cd98efd	0.02655744
250	0xbb498cc6	-0.0030754074
251	0xbbd61d54	-0.006534258
252	0x3c586f9f	0.013210206
253	0x3b368fcb	0.0027856703
254	0xbc290ddd	-0.010318247
255	0x3b4c516f	0.0031176468

encoder.logvar.bias f4 [20]
0	0xba3df7be	-0.00072466943
1	0xbc8fb80b	-0.017543813
2	0xbc226ed1	-0.009914116
3	0xbb5e9193	-0.003396128
4	0xbbf54236	-0.0074846996
5	0xbb9696fe	-0.0045956364
6	0xbc0b3e76	-0.008498779
7	0xbe04aa24	-0.12955528
8	0xbde7cdd8	-0.113185585
9	0xbda5d5c6	-0.08097415
10	0xbad1815c	-0.0015983987
11	0xbbe2d7a3	-0.0069226786
12	0xbafa5914	-0.0019100034
13	0xbae9536c	-0.0017801351
14	0xbbc8496e	-0.006112269
15	0xbb99e011	-0.0046959003
16	0xbc2d2deb	-0.01057003
17	0xbc923859	-0.017849134
18	0xbdc9878b	-0.09840306
19	0xbc6edd8e	-0.01457919

decoder.from_latent.weight f4 [3136, 20]
0	0x3df04e35	0.11733667
1	0x3c09ccd4	0.008410651
2	0x3caf53f6	0.02140234
3	0xbe7db79b	-0.24777071
4	0xbe56020a	-0.20899215
5	0xbd9265e1	-0.07148338
6	0xbacad983	-0.00154762
7	0xba24c382	-0.00062852364
8	0x3cdf15b9	0.027232038
9	0xbe5c3e9d	-0.2150826
10	0x3e09e10b	0.13464753
11	0x3df51b9e	0.11968158
12	0x3e3ee1f9	0.18640889
13	0xbe8ee4fc	-0.27909076
14	0x3da7013a	0.08154531
15	0xbd519700	-0.051169395
16	0x3d7bdde7	0.06149092
17	0xbd8d36b3	-0.06895199
18	0x3e0c1c23	0.13682608
19	0x3e3a26be	0.18178841
20	0xbe83a91d	-0.2571496
21	0x3d91f2c2	0.071263805
22	0xbe0590ff	-0.13043593
23	0x3e970fbc	0.29504192
24	0x3e411c88	0.1885854
25	0xbdad891d	-0.08473418
26	0xbdef24f9	-0.11676974
27	0xbe78accd	-0.24284668
28	0xbe2b17d9	-0.16708316
29	0xbcef2b32	-0.029195402
30	0x3e25615a	0.16150418
31	0xbda62b4a	-0.081137255
32	0xbb9b4687	-0.004738632
33	0x3d517c58	0.051143974
34	0xbe45cec2	-0.19317153
35	0xbe3f1378	-0.1865977
36	0xbdb688d5	-0.089128174
37	0xbdc0dbca	-0.094169214
38	0x3e19320b	0.14960496
39	0x3ea36c3c	0.31918514
40	0x3e2df0d1	0.16986395
41	0xbe4433a7	-0.19160329
42	0x3d9d4a63	0.07680204
43	0xbc8a12c0	-0.016854644
44	0xbe3e055e	-0.18556735
45	0xbe1f46ab	-0.15554301
46	0x3e44927b	0.19196503
47	0xbebfd67a	-0.3746832
48	0xbd902326	-0.07037954
49	0xbe7ff2da	-0.24994984
50	0xbe94b836	-0.29046792
51	0xbe28868f	-0.1645758
52	0x3e3c560c	0.183922
53	0x3e859db9	0.26096895
54	0x3b0de8dc	0.0021653688
55	0x3e32c7ed	0.17459078
56	0xbe23db24	-0.16001564
57	0x3e44d8a5	0.19223268
58	0xbde7db14	-0.11321083
59	0xbd8aced1	-0.06777728
60	0x3e6c60bb	0.23083775
61	0xbe1f00da	-0.15527669
62	0xbe2a79a7	-0.16647969
63	0x3d88989c	0.06669733
64	0xbdb79658	-0.08964223
65	0x3db46cdd	0.088098265
66	0xbdaf9070	-0.08572471
67	0x3e4c6b01	0.19962694
68	0x3da3c437	0.079964094
69	0xbd2a4239	-0.04156706
70	0xbd98885f	-0.07447886
71	0x3cf8443b	0.030305972
72	0xbda1851c	-0.07886717
73	0x3e11cb52	0.14237717
74	0xbe5b7add	-0.21433587
75	0x3e181f98	0.14855802
76	0x3b1964ab	0.002340595
77	0xbe81dba4	-0.25362885
78	0xbe27e218	-0.16394842
79	0xbddf5115	-0.10904137
80	0xbe69ba59	-0.22824992
81	0xbd1f293a	-0.038857676
82	0x3e8427c1	0.2581158
83	0x3e3e82f4	0.18604642
84	0x3d9f9be2	0.07793404
85	0xbda47981	-0.080309875
86	0x3dd764a7	0.10517245
87	0xbebe0c4c	-0.37118757
88	0x3dab7f1a	0.08373852
89	0x3e9147c3	0.28375062
90	0x3e03a3cc	0.12855452
91	0xbe10e146	-0.14148435
92	0xbde4478f	-0.11146461
93	0xbe1e9ce1	-0.15489532
94	0x3e28c020	0.1647954
95	0xbe07bfa6	-0.13256702
96	0x3de5e5fa	0.11225505
97	0xbe84a422	-0.25906473
98	0x3df72327	0.12067252
99	0x3d7a2677	0.06107184
100	0x3dc5ed86	0.096644446
101	0x3e07036b	0.13184898
102	0x3c215ec8	0.009849258
103	0x3d4c0175	0.049806077
104	0xbe05efc4	-0.13079745
105	0x3dd3b979	0.103381105
106	0xbc8e26a4	-0.01735241
107	0xbeddf821	-0.4335337
108	0x3de31c8b	0.110894285
109	0x3de09377	0.10965627
110	0x3ca9d1c4	0.020729907
111	0x3e5291a9	0.20563377
112	0x3dc97b38	0.09837955
113	0x3cb37d2e	0.021910276
114	0xbe665981	-0.2249508
115	0xbd638273	-0.055544328
116	0xbe354c37	-0.17704855
117	0x3e3afb0b	0.18259828
118	0xbe6ce692	-0.2313483
119	0x3da2628c	0.079289526
120	0xbe915328	-0.28383756
121	0xbdd6160e	-0.10453425
122	0x3e6a6fab	0.2289416
123	0xbe61b611	-0.22042109
124	0x3e68408b	0.22680871
125	0xbe6978b6	-0.22799954
126	0x3e96423b	0.29347405
127	0xbe279e48	-0.16368973
128	0x3e9e8de1	0.3096762
129	0x3e58243f	0.21107577
130	0x3e0a88a3	0.13528685
131	0x3deb6741	0.114943035
132	0x3cba62bd	0.02275216
133	0xbe0b4acb	-0.1360275
134	0x3ddf93c1	0.10916854
135	0xbe6b82e2	-0.22999147
136	0xbdacc5cd	-0.08436165
137	0x3e46cea2	0.19414762
138	0xbece4550	-0.40287256
139	0xbcb51808	-0.022106186
140	0x3e885f95	0.26635423
141	0xbe468502	-0.19386676
142	0xbd1fbdc8	-0.03899935
143	0xbe984055	-0.2973658
144	0xbd921dd9	-0.07134599
145	0xbe8bb4ab	-0.27286276
146	0x3e0544d7	0.13014542
147	0xbe409646	-0.18807325
148	0x3e27c80a	0.16384903
149	0x3d08dbf0	0.033412874
150	0x3e58a359	0.21156062
151	0x3e805b68	0.25069737
152	0x3cdffb53	0.02734152
153	0x3d85a09b	0.06524774
154	0x3e26989a	0.1626915
155	0xbe602378	-0.2188853
156	0xbc363e2f	-0.011123224
157	0xbd9f40a3	-0.07776
158	0xbe8b7b9d	-0.27242747
159	0xbbc3a6fb	-0.0059708334
160	0xbd0d0b6b	-0.034434717
161	0x3e888bdb	0.266692
162	0x3e461413	0.19343595
163	0x3d6c42cb	0.057680886
164	0x3e329e60	0.17443228
165	0xbe591fc1	-0.2120352
166	0xbe2d393d	-0.16916366
167	0xbd930fe4	-0.07180765
168	0x3e8520ef	0.2600169
169	0xbddf9512	-0.10917105
170	0x3e3b818c	0.18311137
171	0x3e591a32	0.21201399
172	0x3dce11ea	0.100620106
173	0x3e5fe217	0.2186359
174	0x3d88fdb5	0.06689016
175	0xbe2aada2	-0.16667798
176	0xbd5848fa	-0.05280397
177	0xbdca4251	-0.0987593
178	0x3e61f8a5	0.22067507
179	0xbe144b13	-0.14481764
180	0x3df927e1	0.121658094
181	0x3d9cfc82	0.076653495
182	0xbd31d558	-0.04341635
183	0x3c528e45	0.0128513025
184	0xbe218359	-0.15772761
185	0xbdf5a99f	-0.11995243
186	0xbdfed3d7	-0.12442749
187	0xbe296374	-0.16541845
188	0xbe7a8d0a	-0.24467865
189	0x3ec0b17b	0.37635407
190	0x3db51ba7	0.08843165
191	0x3dde9705	0.108686484
192	0xbcc9c2ee	-0.024629083
193	0xbe3136fa	-0.17306128
194	0x3cf6ced0	0.030127913
195	0x3db17b72	0.086661234
196	0xbe0795da	-0.13240758
197	0xbd50e28a	-0.050997294
198	0xbded3390	-0.115821004
199	0x3df80a0a	0.1211129
200	0x3dcd1695	0.10014073
201	0xbe33b007	-0.17547618
202	0xbb6cb78d	-0.0036120147
203	0xbe297027	-0.16546689
204	0x3cea9218	0.028634116
205	0xbc685c34	-0.014182139
206	0xbdfa95ca	-0.12235601
207	0x3d9abb75	0.07555286
208	0xbdce4cdb	-0.10073253
209	0x3e9d648f	0.30740783
210	0x3d9db704	0.07700923
211	0x3df7d691	0.12101472
212	0x3d99feee	0.07519327
213	0x3e079c29	0.13243164
214	0x3d9a5f9a	0.07537766
215	0xbd5975ba	-0.05309079
216	0x3d958d65	0.073023595
217	0x3d4043e2	0.046939738
218	0xbe558ea0	-0.20855188
219	0x3e2fca0c	0.17166919
220	0xbd9560eb	-0.07293876
221	0xbb1438e8	-0.0022616927
222	0x3dba6349	0.091009684
223	0xbe0c0041	-0.13671972
224	0xbe4758d2	-0.19467476
225	0xbcb74815	-0.022373239
226	0x3d9a72de	0.075414404
227	0xbe421d15	-0.18956406
228	0x3e379990	0.17929673
229	0xbd73792c	-0.05944173
230	0x3d15118c	0.036393687
231	0x3bcd921e	0.006273522
232	0x3e1bd8c0	0.15219402
233	0xbd83ddfc	-0.064388245
234	0x3df0a5a3	0.11750343
235	0x3d4d74ab	0.05016009
236	0x3dff2839	0.12458844
237	0xbdc0b1a0	-0.09408879
238	0x3e1696f2	0.14706019
239	0xbd202837	-0.039100852
240	0xbdf8e470	-0.12152946
241	0x3dbeda4c	0.093189806
242	0xbe0051e5	-0.1253124
243	0x3e131080	0.14361763
244	0xbd113dce	-0.035459332
245	0xbe5b59f9	-0.2142104
246	0x3d0fa5e0	0.0350703
247	0xbe522a66	-0.20523986
248	0xbe63db30	-0.22251582
249	0xbd90d482	-0.07071783
250	0xbda16174	-0.07879916
251	0x3da920c5	0.082582034
252	0xbdeb54ec	-0.11490807
253	0x3e171dea	0.14757505
254	0xbe070e13	-0.13188963
255	0x3dd618db	0.104539596
